Week_3/Robocar_Poli.pth (torch, 9892 bytes, 8 tensors)

input_layer.weight f4 [32, 11]
0	0xbdb45c5d	-0.088066794
1	0xbdb37f35	-0.08764497
2	0x3e945cea	0.28977138
3	0x3ea3f9d7	0.3202655
4	0xbe2f045b	-0.17091505
5	0xbe033639	-0.12813653
6	0x3e7eb68c	0.24874324
7	0xbe82d907	-0.25556204
8	0x3e926491	0.2859235
9	0x3e2c342a	0.16816774
10	0x3e010f5c	0.12603515
11	0x3e89aa80	0.26887894
12	0xbe8385d9	-0.25688055
13	0xbe3cab79	-0.18424787
14	0x3e6307a7	0.22170888
15	0xbdbe9e34	-0.093075186
16	0xbe459418	-0.19294775
17	0x3e1ca186	0.15295991
18	0xbe35988a	-0.1773397
19	0xbe9b6eaa	-0.30357867
20	0xbe96dbaa	-0.29464465
21	0x3e29bd2d	0.16576071
22	0x3c615810	0.013753906
23	0xbe4c017d	-0.19922443
24	0x3e1d3a44	0.15354258
25	0xbe4f97fc	-0.20272821
26	0xbe617ecb	-0.22021024
27	0x3d4ac2f0	0.049502313
28	0x3e36e84f	0.17862056
29	0x3e0ade6f	0.13561414
30	0xbdbb8214	-0.0915567
31	0x3dfd8a45	0.123798884
32	0xbe8d1ca2	-0.27560908
33	0xbe2b01dd	-0.1669993
34	0x3e91598b	0.28388628
35	0xbcd27b71	-0.025693627
36	0x3dcf0e7e	0.10110186
37	0x3e106ea2	0.14104703
38	0x3dd8dae2	0.105886236
39	0xbe885a4a	-0.26631385
40	0x3dbdf160	0.09274554
41	0xbea2fa53	-0.31831607
42	0x3e98e33e	0.29860872
43	0xbde6b008	-0.11264044
44	0x3e21d465	0.15803678
45	0xbd3e156f	-0.04640716
46	0x3dfdb2b9	0.12387604
47	0xbd5acbba	-0.053416945
48	0xbcc7ea25	-0.024403641
49	0x3e99d9d0	0.3004899
50	0x3de82947	0.11335998
51	0x3dbe9997	0.09306639
52	0x3e3d9f08	0.18517697
53	0x3d2c64e5	0.042088408
54	0x3e32e8a4	0.17471558
55	0xbe216fd3	-0.15765314
56	0x3eafa498	0.34305263
57	0xbcfe00a7	-0.03100617
58	0x3de3e6c4	0.111279994
59	0xbe9e06cf	-0.3086457
60	0x3c4ac58f	0.012376203
61	0xbdba1436	-0.09085886
62	0x3c26f78b	0.010190855
63	0xbe85afb4	-0.26110613
64	0xbc48fa37	-0.012266687
65	0x3e367b16	0.17820391
66	0x3e5cf16f	0.21576475
67	0x3e1000be	0.14062783
68	0x3d090afe	0.03345775
69	0x3c9aad08	0.018881336
70	0x3e4d487c	0.20047182
71	0x3e6eb323	0.23310523
72	0x3de517d4	0.111861855
73	0xbb88ba76	-0.0041726185
74	0xbde77ba9	-0.11302883
75	0x3e01231b	0.12611048
76	0xbe91997a	-0.28437406
77	0xbe2ef017	-0.17083775
78	0xbf17d92f	-0.5931577
79	0x3d8ae19d	0.067813136
80	0x3e098f79	0.13433637
81	0xbe5f4035	-0.21801837
82	0xbe7303dc	-0.23731941
83	0x3d2faca8	0.042889267
84	0x3e16243c	0.1466226
85	0xbd8c2bca	-0.068442896
86	0xbe0a541c	-0.13508648
87	0x3dd6298b	0.104571424
88	0x3df5f5a2	0.12009741
89	0xbe3f5441	-0.18684484
90	0x3dd88420	0.10572076
91	0x3e169614	0.14705688
92	0xbdb46958	-0.08809155
93	0x3e8d2814	0.2756964
94	0x3d4a06fb	0.049323063
95	0xbe0ec371	-0.13941742
96	0xbd1f999f	-0.038964864
97	0xbe4b5cb7	-0.19859587
98	0x3e56aa9a	0.20963517
99	0xbdac9776	-0.084273264
100	0x3cc9b388	0.02462174
101	0xbe120c58	-0.14262521
102	0xbe187281	-0.1488743
103	0x3dde8e47	0.10866981
104	0x3de18654	0.11011949
105	0x3e50d362	0.20393136
106	0xbe4b7677	-0.1986941
107	0x3e6a7fb1	0.22900273
108	0x3e9c59cb	0.30537257
109	0x3e3d6a7f	0.18497656
110	0x3d657e1d	0.056028474
111	0x3e24f334	0.161084
112	0xbe65cfe6	-0.22442588
113	0xbe018d16	-0.12651476
114	0x3cc5af2c	0.02413138
115	0x3d17a001	0.037017826
116	0xbcc70d86	-0.02429844
117	0xbe7a393e	-0.24435899
118	0xbe6dd437	-0.23225485
119	0xbd21c1ed	-0.039491583
120	0x3dab9171	0.0837735
121	0xbc1a4e71	-0.009418116
122	0xbf12a7de	-0.57287395
123	0x3e751dcd	0.2393715
124	0x3ddb5297	0.10709112
125	0x3e44f751	0.19234969
126	0xbdbc88fc	-0.09205815
127	0xbde33af9	-0.110952325
128	0xbea812f0	-0.32826948
129	0x3dce17b7	0.10063117
130	0x3e0f096d	0.1396844
131	0x3dd2865e	0.10279535
132	0xbe524325	-0.20533426
133	0xbde22543	-0.11042263
134	0xbe7ebe3d	-0.24877258
135	0xbe83e683	-0.25761804
136	0x3daae74b	0.08344897
137	0xbdffcf4b	-0.1249071
138	0xbe702cb3	-0.23454551
139	0xbe9137d4	-0.28362906
140	0x3da792ca	0.08182295
141	0xbe72de7d	-0.23717685
142	0x3e100287	0.14063464
143	0x3dc44b51	0.09584678
144	0x3e983812	0.29730278
145	0xbd8e2c9f	-0.069421045
146	0xbdf021b4	-0.11725178
147	0xbe1ce4ed	-0.15321703
148	0xbdd90615	-0.10596863
149	0xbe3a9736	-0.18221745
150	0x3e0c3bde	0.13694713
151	0x3d8a2096	0.067444965
152	0xbd846122	-0.06463839
153	0x3e33d9da	0.17563573
154	0xbe122c8f	-0.1427481
155	0x3e6af4cc	0.22944945
156	0xbc7462d0	-0.014916137
157	0x3ded0506	0.11573224
158	0x3e08f8d9	0.13376178
159	0xbea14c39	-0.31503466
160	0xbdc7c190	-0.09753716
161	0xbdefa53a	-0.11701436
162	0x3de2a6ed	0.11066995
163	0xbe2b44bd	-0.1672544
164	0xbd834492	-0.06409563
165	0x3dbcfe64	0.09228209
166	0x3ddd739c	0.10813066
167	0xbd93ffbe	-0.07226513
168	0x3e220336	0.15821537
169	0xbd057648	-0.032583505
170	0x3d7917bd	0.060813654
171	0xbe97530c	-0.29555547
172	0x3e8304e3	0.25589666
173	0x3e32ec06	0.17472848
174	0xbe7bf590	-0.24605393
175	0xbe5317a0	-0.20614481
176	0x3b97c579	0.004631695
177	0xbec9331f	-0.39296815
178	0xbec6f57c	-0.38859165
179	0xbe6bf863	-0.23043971
180	0x3e3d4c07	0.18486033
181	0xbe63b8f6	-0.22238526
182	0x3e5f6d47	0.2181903
183	0x3dfd7889	0.12376506
184	0xbd31ece9	-0.043438826
185	0x3d2dfa0e	0.0424748
186	0xbe40a5cd	-0.18813248
187	0xbdf3ee7b	-0.11910721
188	0x3e778277	0.24170862
189	0x3d925055	0.07144228
190	0x3d3327e4	0.043739215
191	0xbe4eada0	-0.2018342
192	0x3e55b9d5	0.2087167
193	0xbe8addca	-0.27122337
194	0x3e31d842	0.17367652
195	0x3cd678d7	0.026180668
196	0x3eaa9084	0.33313382
197	0x3e88d117	0.26722023
198	0x3db56261	0.08856655
199	0xbc4c0664	-0.0124526955
200	0x3e208bd0	0.15678334
201	0x3df2ccd3	0.11855473
202	0x3e502d46	0.2032977
203	0x3e434477	0.19069086
204	0xbd685aa7	-0.056727078
205	0xbe6372d1	-0.22211768
206	0xbe756ae5	-0.23966558
207	0x3e1f1fed	0.15539522
208	0x3e2681b6	0.16260418
209	0xbdb379ee	-0.087634906
210	0xbdb500c3	-0.08838036
211	0x3e438803	0.19094853
212	0x3e310318	0.17286336
213	0x3e3b115e	0.18268344
214	0xbe3fcc3d	-0.18730254
215	0x3cefdd4a	0.029280324
216	0xbbb3e1c4	-0.00548956
217	0xbe2af66d	-0.16695566
218	0x3e4cb28d	0.19989987
219	0x3d879cd6	0.06621711
220	0x3bb41096	0.0054951413
221	0xbe600e3e	-0.21880433
222	0x3dbcc72a	0.09217675
223	0xbe94ab1a	-0.2903679
224	0xbd6533ba	-0.055957533
225	0x3e4811a7	0.19537984
226	0xbdbc7e04	-0.09203723
227	0xbe5b9e4f	-0.21447109
228	0xbe903ab1	-0.28169778
229	0xbe1daa14	-0.15396911
230	0xbe697362	-0.22797921
231	0x3e4adc38	0.1981057
232	0xbdfbfcf4	-0.12304106
233	0xbe0fecd0	-0.1405518
234	0xbd9a715d	-0.075411536
235	0xbe3a22c4	-0.18177325
236	0x3df676f1	0.12034405
237	0xba29c1a4	-0.0006475693
238	0x3e244f19	0.16045798
239	0x3e9169c7	0.28401014
240	0xbe4feb78	-0.20304668
241	0xbcf9cdd4	-0.030493654
242	0x3e213144	0.1574145
243	0x3e44872c	0.19192189
244	0x3e0cced7	0.13750778
245	0x3de8b4fe	0.113626465
246	0x3d6c9e6f	0.05776828
247	0x3de0d724	0.10978535
248	0x3eaf72b1	0.3426719
249	0x3e89e799	0.26934507
250	0x3e1a47f0	0.15066504
251	0xbe78f4f6	-0.24312195
252	0xbdf1fecd	-0.118161775
253	0x3e80b0c2	0.25134856
254	0xbee0b745	-0.43889824
255	0xbe7bc583	-0.24587063

input_layer.bias f4 [32]
0	0xbdfadd8e	-0.122492895
1	0x3dc6ad8f	0.097010724
2	0xbcb299a0	-0.02180177
3	0xbcd5edb3	-0.02611432
4	0x3e8062d3	0.25075397
5	0xbe6760ea	-0.22595564
6	0x3e93490c	0.28766668
7	0x3dd1697d	0.102251984
8	0xbe180011	-0.14843775
9	0x3dda622d	0.10663257
10	0x3dd54636	0.10413782
11	0x3e242aca	0.16031948
12	0x3e62a97c	0.22134966
13	0x3d835572	0.06412782
14	0xbd4c7b93	-0.049922537
15	0xbda5072f	-0.08058011
16	0xbaab8d43	-0.0013088364
17	0xbdae3300	-0.08505821
18	0x3d64b0ff	0.05583286
19	0xbe972715	-0.29522005
20	0x3d16baee	0.036799364
21	0x3d5f91ac	0.054582283
22	0xbe7eef98	-0.24896085
23	0x3d9b78f4	0.07591429
24	0xbe0b9c24	-0.13633782
25	0x3e50b40b	0.20381181
26	0x3e67011c	0.22559017
27	0xbe8a674e	-0.2703194
28	0x3e47c849	0.19509996
29	0x3e443976	0.19162545
30	0x3e35d91e	0.17758605
31	0x3e6dd0c5	0.2322417

hidden_layers.0.weight f4 [32, 32]
0	0xbe19b54d	-0.15010567
1	0xbdb2e2f9	-0.08734698
2	0xbe06988f	-0.13144134
3	0x3d4507c3	0.048103105
4	0xbc51c794	-0.012803931
5	0xbd8ae92d	-0.06782756
6	0xbdf6dcbc	-0.120538205
7	0xbdf9719e	-0.12179874
8	0x3db6ba4b	0.08922251
9	0xbd53cd2a	-0.05170933
10	0xbe039ac2	-0.12852004
11	0xbc2d2c9f	-0.0105697205
12	0xbe11f2c5	-0.14252765
13	0x3dcf82c4	0.101323634
14	0x3dea126f	0.11429297
15	0x3e29ae4f	0.165704
16	0xbd9bfdd3	-0.076167725
17	0x3d91b921	0.07115389
18	0xbdfb58a9	-0.1227277
19	0x3dd7d696	0.10538976
20	0x3c382f7f	0.011241793
21	0x3d9ed59c	0.077555865
22	0x3e38cece	0.1804764
23	0xbd98bee8	-0.074582875
24	0xbdca3be8	-0.098747075
25	0xbc9bad9c	-0.019003682
26	0xbc9a89ad	-0.018864477
27	0x3d9bdd38	0.076105535
28	0x39e5a8c8	0.00043804036
29	0xbdae5c57	-0.08513706
30	0xbcc21d77	-0.02369569
31	0x3ddf9b9e	0.109183535
32	0xbdc1f7f6	-0.09471123
33	0x3e26479e	0.16238257
34	0xbe0e3218	-0.13886297
35	0xbd3fd15e	-0.046830527
36	0xbe0cc4dd	-0.13746972
37	0x3e432df0	0.19060493
38	0xbd37d862	-0.044884093
39	0xbdbdf5e4	-0.092754155
40	0xbe10b053	-0.14129762
41	0x3de075e1	0.109599836
42	0xbe1d6228	-0.15369475
43	0x3e163e50	0.14672208
44	0x3d147f4e	0.03625422
45	0x3e171a7c	0.14756197
46	0xbd5c6406	-0.053806327
47	0x3dd980a0	0.106202364
48	0xbd67b6b9	-0.056570742
49	0xbe1fe496	-0.15614542
50	0x3c72d681	0.0148216495
51	0x3d904e87	0.07046228
52	0xbc7cd184	-0.015430812
53	0xbdd5163c	-0.104046315
54	0x3c8f5807	0.01749803
55	0x3e1ff0a1	0.15619136
56	0xbe3084ca	-0.17238155
57	0xbd9381f2	-0.072025195
58	0xbd8a4c40	-0.06752825
59	0xbd74d86e	-0.059776716
60	0xbe107b1b	-0.14109461
61	0xbd29c6c8	-0.04144934
62	0xbc7b8535	-0.015351583
63	0xbc6d8e68	-0.014499284
64	0x3a8e5883	0.0010860119
65	0x3de50d08	0.11184126
66	0xbd2bea78	-0.041971654
67	0x3ccfd087	0.025367988
68	0xbe039159	-0.12848414
69	0x3d1f00a0	0.038818955
70	0xbd6c4b50	-0.05768901
71	0xbc9e98be	-0.019359943
72	0xbe188846	-0.14895734
73	0xbd593d3f	-0.053036924
74	0xbe295ab0	-0.16538501
75	0xbe26834a	-0.1626102
76	0x3e2bc357	0.16773735
77	0x3dbcf764	0.092268735
78	0xbe0655d2	-0.13118675
79	0xbcf5afdc	-0.029991083
80	0x3cf4fa6a	0.029904563
81	0x3d2f493c	0.04279445
82	0xbca3238d	-0.019914413
83	0x3dd126df	0.10212492
84	0xbde39a92	-0.11113466
85	0xbd7e961b	-0.06215487
86	0x3b6d9079	0.0036249442
87	0x3e01fd37	0.1269425
88	0xbe0dcc25	-0.13847406
89	0x3d6ecfef	0.05830377
90	0xbe3d341d	-0.18476911
91	0xbd70149e	-0.058613412
92	0xbd02325d	-0.03178631
93	0x3dd2f384	0.10300353
94	0x3e00f89b	0.12594835
95	0xbce3dec8	-0.027816191
96	0x3d55c92e	0.052193813
97	0x3ca413b8	0.020028934
98	0xbe17d521	-0.14827396
99	0xbe304c93	-0.17216711
100	0x3dd90068	0.105957806
101	0xbdc1c62a	-0.09461625
102	0x3e065d67	0.13121568
103	0x3e2a0cb1	0.16606404
104	0xbd8a3a10	-0.06749356
105	0x3e07a23d	0.13245483
106	0xbd97a3b9	-0.074042745
107	0x3dde3d11	0.10851491
108	0xbcb6990c	-0.022289775
109	0x3d960525	0.073252
110	0xbcac0d9d	-0.021002585
111	0xbd384fed	-0.0449981
112	0x3ddb0412	0.10694136
113	0x3ba3bc34	0.004996801
114	0x3e28005e	0.1640639
115	0x3e098c92	0.1343253
116	0xbdf1dec6	-0.11810069
117	0xbc840e3b	-0.016120067
118	0xbdc077fe	-0.09397887
119	0x3c8da146	0.017288815
120	0x3dad99f9	0.084766336
121	0xbe09d7bf	-0.13461207
122	0x3b8c4f40	0.0042819083
123	0xbd6091e6	-0.05482664
124	0xbc0d6e3c	-0.008632239
125	0x3d98c4c2	0.074594036
126	0xbd8109da	-0.06300707
127	0x3d778500	0.060429573
128	0xbe4556ca	-0.19271389
129	0xbdc103a2	-0.09424521
130	0x3b9e71dc	0.0048353504
131	0xbb74e635	-0.003736866
132	0x3c702a05	0.014658456
133	0xbe22774d	-0.15865822
134	0xbd91873e	-0.071058735
135	0xbddd7db3	-0.10814991
136	0xbd9cd400	-0.07657623
137	0x3d5bd115	0.053666193
138	0x3cc4250a	0.023943443
139	0x3e685b17	0.22690998
140	0x3cb38811	0.021915467
141	0xbe1f6f5a	-0.15569821
142	0x3e35d577	0.17757212
143	0x3d4db276	0.05021902
144	0xbdea68f6	-0.11445801
145	0xbcf6f3a0	-0.030145466
146	0x3d42e221	0.047578935
147	0x3dd9c736	0.106336996
148	0x3b8eea5f	0.0043614353
149	0x3dda142c	0.10648379
150	0x3d80a6cd	0.06281815
151	0xbd957857	-0.07298344
152	0x3dbea42e	0.093086585
153	0xbdf3bd07	-0.119012885
154	0x3df08401	0.11743928
155	0x3db98f06	0.09060483
156	0xbddcf06f	-0.107880466
157	0x3a4a9c47	0.00077289756
158	0x3e24686c	0.16055459
159	0x3e2f6573	0.17128544
160	0xbe01e91f	-0.12686585
161	0xbe1bea83	-0.15226178
162	0x3e084338	0.13306892
163	0x3cb296a0	0.02180034
164	0x3e2bf905	0.16794212
165	0xbdbc317e	-0.091891274
166	0x3d75dcbf	0.060024973
167	0x3c6cd9c9	0.014456221
168	0x3dbe510c	0.09292802
169	0xbcb7cdbc	-0.022436969
170	0x3c89bab4	0.01681266
171	0x3e17edd4	0.14836818
172	0x3dfc6898	0.12324637
173	0x3d00d397	0.031451788
174	0xbdbbbd8f	-0.09167015
175	0x3daf1e50	0.085507035
176	0x3e1f8631	0.15578534
177	0xbe00c8b3	-0.1257656
178	0x3e02f4cf	0.127887
179	0xbe1bb088	-0.1520406
180	0x3dd385a1	0.10328222
181	0x3dedd5c4	0.11613038
182	0x3db6f7f6	0.089340135
183	0x3d437b8b	0.04772524
184	0x3e4335f4	0.1906355
185	0x3ddef2d4	0.108861595
186	0xbe06b9c0	-0.13156796
187	0x3d7c6411	0.06161887
188	0x3e2bd8fc	0.16781992
189	0x3d223c1c	0.039608106
190	0x3d8c31a3	0.06845405
191	0xbd613e46	-0.05499103
192	0x3d6a6ea1	0.05723441
193	0xbe291d35	-0.16515048
194	0x3da080f7	0.07837098
195	0x3e31c0a0	0.17358637
196	0xbd32fd5e	-0.04369866
197	0x3e1e4271	0.15455033
198	0x3df6f7c4	0.12058976
199	0xbd70b595	-0.05876692
200	0x3d86d5c5	0.06583742
201	0xbdfaf63d	-0.122539975
202	0x3d81c2c9	0.063359804
203	0x3d2fea3f	0.042948004
204	0x3dc4630f	0.095892064
205	0x3b393774	0.0028261812
206	0x3e1f51c7	0.1555854
207	0x3a31389d	0.000676045
208	0xbe25f31c	-0.1620602
209	0x3da4319d	0.080172755
210	0xbddcd68d	-0.1078311
211	0x3e1a69ca	0.15079418
212	0x3d4a9e32	0.049467273
213	0xbd57eb6c	-0.05271475
214	0xbcb1c0e5	-0.021698425
215	0x3d9c08cd	0.07618866
216	0x3d84466b	0.06458744
217	0xbd92c0b4	-0.071656615
218	0x3d134ae0	0.03596008
219	0x3dc3703d	0.09542892
220	0x3dea6528	0.11445075
221	0x3e26cf80	0.16290092
222	0xbda5a958	-0.080889404
223	0xbd187b7e	-0.037227146
224	0xbe53318d	-0.20624371
225	0x3ce940ef	0.028473346
226	0x3e1958e9	0.14975323
227	0xbde423ab	-0.111396156
228	0x3da9d54a	0.08292635
229	0x3dd4242f	0.10358464
230	0xbd3a1e60	-0.045439124
231	0xbd93ac89	-0.07210643
232	0xbdae7caa	-0.085198715
233	0x3dc0de09	0.0941735
234	0x3dc3a78e	0.09553443
235	0x3e4d5082	0.20050243
236	0xbe05c2a4	-0.13062531
237	0x3d6d6c1b	0.057964426
238	0xbe11cc06	-0.14237985
239	0xbda2864c	-0.07935771
240	0xbc96290c	-0.01833012
241	0xbd580ca3	-0.052746426
242	0xbd8e3ad6	-0.06944816
243	0xbdea77f7	-0.11448663
244	0xbc30857f	-0.010774015
245	0x3de9d71f	0.11417984
246	0xbda0a15e	-0.07843278
247	0x3e16ba41	0.14719488
248	0xbdff24b5	-0.12458173
249	0xbe133568	-0.14375842
250	0x3d513905	0.05107977
251	0x3e264607	0.16237651
252	0x3d7dd507	0.061970737
253	0x3ce8c764	0.02841539
254	0x3d5aee76	0.05345007
255	0xbdc3867f	-0.095471375

hidden_layers.0.bias f4 [32]
0	0xbd4519ce	-0.048120312
1	0xbe218489	-0.15773214
2	0xbe233757	-0.15939079
3	0x3dc8c21a	0.09802647
4	0x3e0d0cf8	0.13774478
5	0xbde2e139	-0.11078114
6	0x3dc577ff	0.09642028
7	0x3d27900f	0.04090887
8	0x3da3c538	0.07996601
9	0x3de1e570	0.1103009
10	0x3e570033	0.2099617
11	0xbcfb9a5d	-0.030713255
12	0x3d852dc8	0.06502873
13	0xbdce1a34	-0.100635916
14	0xbda015f8	-0.0781669
15	0xbd1b4328	-0.037905842
16	0x3e279886	0.16366777
17	0x3dd2aebe	0.10287236
18	0x3c739ae2	0.01486847
19	0x3e31317b	0.17304032
20	0x3d90b825	0.07066373
21	0x3dd378a7	0.10325747
22	0xbe0a9d78	-0.13536632
23	0x3d688b21	0.05677331
24	0x3d9352af	0.07193505
25	0x3e2ea0a4	0.17053467
26	0xbd68f7ba	-0.056876875
27	0x3e4a957f	0.1978359
28	0xbd80f95f	-0.06297564
29	0xbc6dd3d9	-0.01451584
30	0xbe3606be	-0.1777601
31	0xbd1c2bc1	-0.038127664

mu_layer.weight f4 [3, 32]
0	0xbe487902	-0.19577411
1	0x3dd9770b	0.10618409
2	0x3bbc19f7	0.0057404
3	0x3e4d155a	0.20027676
4	0xbc7d0a13	-0.015444296
5	0x3e00e0ea	0.12585798
6	0x3bdeb74b	0.0067967526
7	0x3cdbe090	0.026840478
8	0x3e3c8cad	0.18413039
9	0xbe3329b6	-0.1749638
10	0x3c416c0a	0.011805544
11	0xbdbab011	-0.09115613
12	0x3d18ea96	0.037333094
13	0xbde107e3	-0.109878324
14	0x3d89f6fa	0.0673656
15	0x3e4326c6	0.1905776
16	0xbced91de	-0.029000219
17	0xbc54035d	-0.012940255
18	0x3e26db00	0.1629448
19	0xbd1e3bfa	-0.038631417
20	0xbd873979	-0.06602759
21	0x3d3d5015	0.04621895
22	0x3c52aab2	0.01285808
23	0xbdd16812	-0.10224928
24	0x3991bd93	0.000277978
25	0x3e36d188	0.17853367
26	0xbe2a4757	-0.16628776
27	0xbd40953e	-0.04701733
28	0x3db27d12	0.087152615
29	0xbdd7f10a	-0.105440214
30	0xbc70a993	-0.014688867
31	0xbd31dff9	-0.043426488
32	0x3dee3c94	0.11632648
33	0xbdfb4940	-0.12269831
34	0xbdc6f6b8	-0.097150266
35	0x3e0d3b59	0.1379217
36	0x3dafe6dc	0.08588955
37	0x3d9629f9	0.073322244
38	0xbe15c66e	-0.14626476
39	0x3d0f6e0d	0.035017062
40	0x3d0ea40e	0.034824423
41	0xbdd15ab5	-0.10222379
42	0xbc82346f	-0.015894143
43	0xbe21f274	-0.15815145
44	0x3e13d318	0.14435995
45	0xbd6832ac	-0.05668895
46	0xbddf1647	-0.10892921
47	0x3e1fef98	0.15618742
48	0xbe09aa4a	-0.13443866
49	0x3dffa7a1	0.124831446
50	0x3dc21f52	0.0947863
51	0xbe2aea77	-0.16691004
52	0x3d2b1352	0.041766472
53	0x3e44669f	0.19179772
54	0x3dba610f	0.09100544
55	0x3dcbc061	0.09948803
56	0xbd0286f6	-0.03186699
57	0xbdfa75a5	-0.1222947
58	0xbdd0458a	-0.101695135
59	0x3dd2dbab	0.102958046
60	0x3cbf4936	0.02335034
61	0x3dd03dab	0.10168012
62	0x3d9f9616	0.077922985
63	0x3e09819a	0.13428345
64	0x3b7e1472	0.003876951
65	0xbd6d7333	-0.05797119
66	0x3deaf8d9	0.11473245
67	0xbcb5d8ae	-0.022198047
68	0xbe2bfc3a	-0.16795436
69	0xbd60e3ab	-0.05490462
70	0xbe1b4cf3	-0.15166073
71	0xbdd5c1d1	-0.10437358
72	0x3df0c63f	0.117565624
73	0xbd680f96	-0.05665549
74	0xbda18d8d	-0.07888327
75	0x3e2d5eef	0.16930746
76	0x3deaf09e	0.11471675
77	0x3bd3366a	0.0064456956
78	0xbca1e336	-0.019761663
79	0xbdc46b6b	-0.09590801
80	0x3d8067c4	0.06269792
81	0x3d998a1a	0.07497044
82	0x3d51560e	0.05110746
83	0x3d98e106	0.07464795
84	0xbdc14b97	-0.09438246
85	0xbe06c437	-0.13160788
86	0xbdcf766b	-0.10130008
87	0xbdab4867	-0.08363419
88	0xbcdc8792	-0.026920114
89	0xbda27511	-0.07932485
90	0x3d30da1d	0.04317676
91	0xbd533768	-0.05156651
92	0x3dbd5a4a	0.09245737
93	0x3b70cf63	0.0036744706
94	0xbe3b2382	-0.18275264
95	0x3de5ef63	0.112273

mu_layer.bias f4 [3]
0	0x3d6730cd	0.056443024
1	0x3e0d1ab2	0.13779715
2	0x3e04d048	0.12970078

log_std_layer.weight f4 [3, 32]
0	0x3dc29d75	0.09502689
1	0x3e43ef4f	0.19134258
2	0x3e470bc6	0.19438085
3	0xbdbbd13f	-0.0917077
4	0xbdc38670	-0.09547126
5	0x3da6f1d8	0.08151597
6	0x3d0bd574	0.03413911
7	0xbe1bff15	-0.15234025
8	0xbd69a459	-0.0570415
9	0xbd86dd11	-0.06585134
10	0xbde77783	-0.11302092
11	0xbd9a64ea	-0.07538779
12	0x3dc50d65	0.096216954
13	0x3d71c1dd	0.059022773
14	0xbb9835b8	-0.0046450756
15	0xbe033cf9	-0.12816228
16	0x3e14e796	0.14541468
17	0xbc02dd82	-0.007987382
18	0x3df584f5	0.1198825
19	0xbe16e979	-0.147375
20	0xbd5847d4	-0.052802876
21	0xbe12bf9f	-0.1433091
22	0x3e568301	0.20948412
23	0xbdff1a18	-0.12456149
24	0x3dc6d196	0.09707944
25	0xbd30bd9b	-0.043149572
26	0xbd0ecf01	-0.034865383
27	0xbd0211a5	-0.03175511
28	0xbc41cf24	-0.011829171
29	0xbd83a027	-0.06427031
30	0xbc09499c	-0.008379366
31	0xbdec0a98	-0.11525458
32	0x3e3d19e2	0.18466905
33	0xbdb6ff7b	-0.08935448
34	0xbdae9c19	-0.08525867
35	0x3ce854f6	0.028360825
36	0xbddab08e	-0.106782064
37	0xbe444c6e	-0.1916978
38	0x3d161f7d	0.036651123
39	0xbe06de9a	-0.13170853
40	0xbdb0ee08	-0.08639151
41	0x3d0eb01b	0.034835916
42	0xbe4d6c86	-0.2006093
43	0x3b3904e6	0.002823168
44	0x3df6dd02	0.12053873
45	0x3e2f8196	0.17139277
46	0x3d19694f	0.037453946
47	0x3c25e3a4	0.010125075
48	0xbe3d98bc	-0.18515295
49	0x3d8fff58	0.07031125
50	0xbe08ef60	-0.13372564
51	0x3c2caea4	0.010539684
52	0x3d5b4c67	0.05353966
53	0xb9a1f414	-0.00030890165
54	0xbde1be1e	-0.1102259
55	0xbe20dce0	-0.15709257
56	0xbe2c0196	-0.1679748
57	0xbdc74c8b	-0.09731396
58	0x3b056df3	0.0020359724
59	0xbe10ccfe	-0.14140698
60	0x3d9705da	0.07374163
61	0xbe20b655	-0.15694554
62	0x3e1f9967	0.15585862
63	0xbe2b8620	-0.16750383
64	0x3e2b4202	0.16724399
65	0x3e18d7e6	0.14926109
66	0x3e117c12	0.14207485
67	0x3d7b7dca	0.06139926
68	0xbe2bc8e0	-0.16775846
69	0x3e39fd7c	0.18163103
70	0x3e0f1782	0.13973811
71	0xbe3bd633	-0.1834343
72	0x3d6b8dd8	0.05750832
73	0x3dd17cf4	0.10228911
74	0xbbfe7cdd	-0.0077663497
75	0xbe4e5979	-0.20151319
76	0x3d45bcb5	0.04827567
77	0xbc455913	-0.012045163
78	0x3e1a3028	0.15057433
79	0xbd89b147	-0.06723266
80	0x3e03fb45	0.1288882
81	0x3d981a33	0.07426872
82	0x3d305263	0.04304732
83	0xbe47db64	-0.19517285
84	0xbd534c41	-0.051586393
85	0xbe3c07b7	-0.18362318
86	0xbc47076e	-0.0121477675
87	0x3e249c15	0.16075166
88	0x3c9d1870	0.019176692
89	0x3ccd9d90	0.025099546
90	0xbd2c7654	-0.042105034
91	0xbe0b1b81	-0.1358471
92	0xbb3664a0	-0.0027830973
93	0x3e154cae	0.14580032
94	0xbc86d058	-0.016456768
95	0xbe16256a	-0.1466271

log_std_layer.bias f4 [3]
0	0xbe683d56	-0.22679648
1	0xbe24a1e7	-0.16077386
2	0xbde9a8ba	-0.11409135
