Week_2/Robocar_Poli.pth (torch, 22650 bytes, 6 tensors)

fc.0.weight f4 [64, 8]
0.73941547 0.8124946 0.17682229 -0.016878821 -0.065943584 -0.20494506 -1.0241095 -0.73699427
-0.8181774 0.4343988 0.6101819 -0.9197081 -0.6400666 0.85102344 0.54191726 0.07229522
-0.15485938 -1.0847073 -1.3382058 -1.624225 1.5076417 -0.46170592 0.9268422 -0.13359655
-0.8673239 -0.06889444 0.7027633 -0.6001066 -1.8468065 0.802958 1.5506618 0.31869838
0.42871028 -0.829014 1.7882714 -1.3859677 1.8042687 1.59417 -0.40685183 0.40737587
1.1058967 -0.3975158 0.47211662 0.1786359 -0.15324424 0.76631725 0.1908935 -1.7447618
1.4546562 -0.11724581 -1.7456688 -0.39251575 1.0681796 -0.18469955 -0.14184172 1.1690915
-0.4468356 0.4936246 -0.90001523 -0.029482873 2.5259774 1.3071226 0.01923559 -0.60622823
-1.2377476 -0.0037450497 0.4635657 0.40349296 -1.2025952 0.31651795 0.2667203 -0.1374031
0.24083285 0.28100646 -0.5077848 -0.40064496 -1.2969224 1.1879922 0.7491587 -0.27418303
0.48433858 -1.3822922 0.5230912 -1.2904118 -0.49933118 -1.1295638 -1.4082971 0.29771703
-1.7518992 -0.13044584 0.17339477 0.18626371 -0.98199654 0.0866334 0.7798981 -0.14264384
-1.0244098 0.08747036 -1.666478 2.3514786 -0.26612285 0.15898727 -0.16299325 1.5303336
2.1900795 -0.12235744 1.1071415 -0.13260044 0.7821808 0.46199414 -0.3792519 -0.3913947
-0.68248856 -0.012078242 -0.22676665 -0.03248666 0.46365267 0.7064005 1.0458614 0.20308253
-0.9679012 -0.37957326 0.30187014 -0.041152827 0.42035076 1.1252487 -0.030627651 0.77503985
1.3101778 -0.4482948 1.4658508 -1.7413843 -0.6236803 -0.073123015 0.2825519 0.5820785
-0.5458042 0.88565314 -1.2819358 0.91645634 1.5659198 1.0290407 0.29877692 -0.09877908
-0.22236519 -0.03875841 0.5808829 0.22897996 0.5458762 -0.8082819 0.6297493 0.91839
-2.1654325 -1.1067193 0.781645 -1.3696488 1.4073464 -0.37041062 -1.7430315 0.35085258
0.7734415 0.49528983 -0.72508836 -0.013062534 -1.5548568 -1.6636367 0.14280663 -0.5847724
-1.6470057 -0.31041622 -1.100582 0.41544002 0.75394267 -0.06863513 -0.53734535 0.5841771
-1.3252878 0.5695719 -0.016526854 -1.1842159 0.12559785 -0.7282172 -2.0446231 -0.38004723
-0.075819366 -0.016858762 -0.59859437 -1.7691289 0.1620735 0.22163108 0.5028551 0.41166344
-0.19397713 0.76263124 2.326212 -2.1011505 -0.32582498 0.031645454 -2.0214112 0.3078597
-1.1970026 -0.19991545 -0.44289076 0.22179511 1.2558323 0.10683099 -1.6752381 0.52216643
0.24429566 0.49424708 -1.0288526 0.20094891 -0.6303217 -0.10454308 -0.50164056 1.4611388
0.18892558 0.29099196 1.042463 -0.19200605 1.3148266 0.740246 -1.3584666 -0.48728648
0.33410826 0.1254891 0.037503306 0.10309817 0.20483655 1.1872729 1.7030331 -0.96552145
-0.7201997 -0.20475365 -0.060479973 3.2786841 1.4294001 0.43930262 0.8993443 -1.1774706
-0.3988275 -0.39629164 -2.0355883 -0.18954735 0.44433507 0.49961475 -1.0475982 -1.5915028
-1.7565424 -0.10432888 1.3330015 0.23765491 -1.6076037 -1.607259 0.7106073 -0.97870535
00000000: 554a 3d3f a5ff 4f3f e710 353e 7445 8abc
00000010: 6e0d 87bd 1edd 51be 0516 83bf a8ab 3cbf
00000020: 1374 51bf 8569 de3e e234 1c3f fd71 6bbf
00000030: 68db 23bf acdc 593f 17bb 0a3f 840f 943d
00000040: 7593 1ebe b0d7 8abf 544a abbf 9be6 cfbf
00000050: 67fa c03f b864 ecbe 8845 6d3f 89cd 08be
00000060: f008 5ebf 8718 8dbd 4ce8 333f 96a0 19bf
00000070: 2864 ecbf a88e 4d3f 167c c63f 6f2c a33e
00000080: ea7f db3e 433a 54bf 14e6 e43f 6467 b1bf
00000090: 47f2 e63f c30d cc3f e24e d0be 9293 d03e
000000a0: 068e 8d3f 3187 cbbe 45b9 f13e 54ec 363e
000000b0: 0fec 1cbe 5e2d 443f 9679 433e 5b54 dfbf
000000c0: 2d32 ba3f 921e f0bd 1372 dfbf d3f7 c8be
000000d0: 1cba 883f e121 3dbe f53e 11be caa4 953f
000000e0: a3c7 e4be 5dbc fc3e 6667 66bf 1186 f1bc
000000f0: 9da9 2140 cb4f a73f f593 9d3c c631 1bbf
00000100: 836e 9ebf 826f 75bb 7c58 ed3e a196 ce3e
00000110: a4ee 99bf a40e a23e 908f 883e 66b3 0cbe
00000120: e39c 763e 14e0 8f3e 2ffe 01bf 5621 cdbe
00000130: 8e01 a6bf 2110 983f ddc8 3f3f b861 8cbe
00000140: 3afb f73e f3ee b0bf 4ee9 053f 372c a5bf
00000150: 56a8 ffbe 8c95 90bf 1443 b4bf 5e6e 983e
00000160: 3c3e e0bf 9893 05be 668e 313e eabb 3e3e
00000170: 2064 7bbf da6c b13d 67a7 473f 3a11 12be
00000180: dc1f 83bf a923 b33d 274f d5bf a07e 1640
00000190: 4141 88be 8fcd 223e b4e7 26be f9e1 c33f
000001a0: 432a 0c40 8a96 fabd d0b6 8d3f 69c8 07be
000001b0: 003d 483f 7f8a ec3e 4e2d c2be e364 c8be
000001c0: 92b7 2ebf d2e3 45bc 8435 68be bb10 05bd
000001d0: e263 ed3e aad6 343f c9de 853f def4 4f3e
000001e0: 5fc8 77bf 6d57 c2be b98e 9a3e de8f 28bd
000001f0: 3738 d73e 2608 903f d7e6 fabc 0369 463f
00000200: e8b3 a73f e586 e5be 00a1 bb3f aee5 debf
00000210: 83a9 1fbf 85c1 95bd a5aa 903e 1903 153f
00000220: d3b9 0bbf 2aba 623f 7916 a4bf e29c 6a3f
00000230: 0f70 c83f 9bb7 833f 4af9 983e b04c cabd
00000240: b3b3 63be 23c1 1ebd beb4 143f b979 6a3e
00000250: 8bbe 0b3f 90eb 4ebf 4037 213f 9b1b 6b3f
00000260: 7296 0ac0 faa8 8dbf e319 483f a750 afbf
00000270: ed23 b43f 76a6 bdbe a81b dfbf f3a2 b33e
00000280: 4300 463f a196 fd3e 649f 39bf 3d04 56bc
00000290: 8c05 c7bf 0cf2 d4bf e73b 123e a5b3 15bf
000002a0: 15d1 d2bf e0ee 9ebe dfdf 8cbf 8eb4 d43e
000002b0: 6302 413f 9390 8cbd 778f 09bf a18c 153f
000002c0: 08a3 a9bf 77cf 113f 5363 87bc 6394 97bf
000002d0: b99c 003e 716c 3abf 1bdb 02c0 8d95 c2be
000002e0: 2f47 9bbd 631b 8abc 7b3d 19bf d172 e2bf
000002f0: 98f6 253e 42f3 623e 1dbb 003f 8dc5 d23e
00000300: f1a1 46be cd3b 433f a8e0 1440 4079 06c0
00000310: 88d2 a6be aa9e 013d cd5e 01c0 c99f 9d3e
00000320: 6237 99bf a3b6 4cbe 94c2 e2be 421e 633e
00000330: 1dbf a03f 35ca da3d 346e d6bf b3ac 053f
00000340: a428 7a3e f40d fd3e 71b1 83bf 8dc5 4d3e
00000350: c35c 21bf af1a d6bd 846b 00bf 9906 bb3f
00000360: b575 413e e6fc 943e 6d6f 853f 3c9d 44be
00000370: 3d4c a83f c380 3d3f 3ce2 adbf 9d7d f9be
00000380: 3d10 ab3e 3780 003e 119d 193d 2225 d33d
00000390: acc0 513e 8ff8 973f fdfc d93f 6a2c 77bf
000003a0: 025f 38bf f1aa 51be d9b9 77bd f6d5 5140
000003b0: 95f6 b63f 46ec e03e 6e3b 663f 5bb7 96bf
000003c0: 1e33 ccbe bde6 cabe 1447 02c0 b318 42be
000003d0: e37f e33e 81cd ff3e b317 86bf 5db6 cbbf
000003e0: 62d6 e0bf 61aa d5bd cb9f aa3f cf5b 733e
000003f0: f5c5 cdbf aaba cdbf 5cea 353f 6f8c 7abf

fc.0.bias f4 [64]
0.017543532 0.34037977 0.34118283 -0.26832473 0.085435815 0.40483433 -0.5621917 -0.01623857
0.5630571 0.5413282 -0.41551146 -0.26385644 -0.13315153 -0.03326442 0.35120547 0.5427981
0.7076306 0.46194765 0.4090021 0.12960894 -0.71943974 -0.32379496 0.58019143 0.013359951
0.04280025 0.4354815 0.14223057 0.4603138 0.19737191 0.3180826 0.94497347 0.21357921
0.2982383 0.16393438 0.6448398 -0.03190328 0.48839745 0.45453075 0.27765927 -0.30684063
0.5876762 0.22187768 -0.38807043 0.14796412 0.12617469 0.5773121 -0.18625729 0.030490167
0.4906315 0.30346867 0.3147764 0.33962274 0.2745308 -0.035234775 0.17792417 0.17729583
-0.09163728 0.04577665 0.3256773 0.45915926 0.32141837 0.11583107 0.18183812 -0.048552934
00000000: 74b7 8f3c 4246 ae3e 84af ae3e dc61 89be
00000010: f9f8 ae3d 7246 cf3e cceb 0fbf c006 85bc
00000020: 8324 103f 7c94 0a3f ebbd d4be 3118 87be
00000030: e058 08be 4640 08bd 34d1 b33e d1f4 0a3f
00000040: 4727 353f 6784 ec3e b968 d13e 35b8 043e
00000050: 342d 38bf 74c8 a5be 6d87 143f b2e3 5a3c
00000060: 514f 2f3d 6ef7 de3e e4a4 113e 40ae eb3e
00000070: dd1b 4a3e b9db a23e c8e9 713f 82b4 5a3e
00000080: b1b2 983e 6ade 273e 3914 253f 04ad 02bd
00000090: 3b0f fa3e 41b8 e83e 5b29 8e3e 371a 9dbe
000000a0: f371 163f e733 633e 2bb1 c6be e883 173e
000000b0: f033 013e baca 133f 3bba 3ebe 84c6 f93c
000000c0: 0d34 fb3e 3f60 9b3e 5f2a a13e 08e3 ad3e
000000d0: 4d8f 8c3e 5752 10bd c131 363e 0a8d 353e
000000e0: 54ac bbbd 4c80 3b3d 2dbf a63e ec16 eb3e
000000f0: f390 a43e d738 ed3d c633 3a3e 71df 46bd

fc.2.weight f4 [64, 64]
-0.44972888 -0.43508345 0.38872457 0.6522365 0.54093033 0.2652603 0.14770943 -0.2888812
0.2755169 0.07969277 1.7486398 0.65333915 0.27804533 0.72110426 0.0038706735 0.27559313
0.17794873 0.086387485 0.41475305 -0.41107866 -2.8035643 1.4016967 0.27087706 -0.19764034
-0.16416332 0.2006126 -0.5051411 0.19316478 0.11608753 0.48378488 0.7407208 1.0350151
-0.35366705 -0.56342876 0.19589767 -0.80085135 -0.0069091837 0.6437818 0.5208397 -0.29729986
0.3657302 0.7777602 0.5699688 -0.5393427 0.67064005 0.4686912 1.2017566 0.2486977
0.50568825 -0.06615834 -0.4542374 -0.29266718 0.52335864 -0.8581175 -0.17034118 0.21405095
-1.2721124 -0.45651895 -0.405043 -0.43261132 -0.57236767 0.2492611 0.5684968 0.49285603
0.042220645 0.18224138 0.5526563 -4.504132 0.77322865 -2.1744237 -2.0170236 0.056900512
0.0012223552 0.3477104 -1.8217816 1.1274602 -0.5048555 -0.48236337 0.21212707 -1.8961422
-3.0449328 0.53151256 -1.2942983 -1.0118269 0.5444474 0.95890397 0.030650722 0.10096908
-0.69558656 -0.25219053 0.47384334 -0.4909058 -1.3994818 1.3826976 0.1894238 -1.4540614
0.26815727 -0.23326974 -1.1982527 1.0138648 -1.257114 0.6688685 -2.3812904 -0.7534859
-1.0876558 -0.19417104 -1.5801467 0.5984375 0.9076228 -0.3011294 -2.9044945 -0.11388266
-0.797263 0.13455056 -0.38380677 -0.020309875 0.23882835 0.4187534 0.4663784 -0.36313763
-0.14786716 0.21626581 -0.119926915 0.25442755 0.9241281 1.5632797 -0.15061268 -0.18204254
0.17763782 -0.30019417 0.39971545 -0.39501134 0.16707511 0.61520183 0.8898759 0.6509394
0.047547106 0.0877162 -0.011808269 -0.2689331 -0.22701861 0.89683515 0.14776832 -0.2130741
0.5074048 -0.3549206 0.33987048 0.33148167 0.5228917 0.096838735 0.2799516 -0.5890124
0.059254903 0.33464935 0.20908025 0.80870485 0.034533374 -1.0103753 -0.067902565 -0.5849125
-0.1889922 0.37330985 0.05931948 -1.6553173 0.15278535 0.07958962 -1.4249848 1.2718216
1.0078791 0.22228703 -1.2618921 -1.0997635 -0.6280805 0.34878978 -0.19609798 0.33571535
-0.6063583 -0.08423581 0.2622988 0.22928795 -0.16592352 -0.0096605085 -0.29587647 0.06164427
0.4214252 -0.6248686 0.36379704 -0.064416334 -0.7529483 -0.56940377 0.23043257 0.83547187
0.23675856 -0.30425248 -0.22364853 -1.1405061 -0.6231538 0.37985379 0.53105545 0.06605248
0.40661728 -0.13900253 -1.8424304 -0.68067145 -0.6395443 -0.24036221 0.00021370998 0.08398992
-0.3760447 -0.6448153 0.35335204 -0.6101494 0.3650466 -0.40525603 0.40163139 -0.62761563
-0.027949825 0.460315 0.311452 0.5001281 -1.066652 -0.2166729 0.0617335 -0.4753811
0.52490515 0.35223952 0.41177353 -3.4077969 0.10065902 0.27260903 -1.6106012 -2.0708404
0.5630137 0.4036939 -0.77702886 0.6424013 0.6399989 0.4421764 -0.6464977 -0.00020127783
0.30883488 0.58993524 0.5174389 0.4711586 0.03216334 -0.63136613 0.029252622 0.46809933
-0.009708153 0.15702564 0.023361785 0.08065136 0.19849041 0.16299744 0.44140798 0.47698563
00000000: dd42 e6be 42c3 debe e806 c73e f9f8 263f
00000010: 697a 0a3f 33d0 873e 2441 173e 3de8 93be
00000020: 8d10 8d3e f735 a33d 6ed3 df3f 3c41 273f
00000030: f55b 8e3e 4a9a 383f 20ab 7d3b 8b1a 8d3e
00000040: 3138 363e eceb b03d 835a d43e e778 d2be
00000050: 996d 33c0 cc6a b33f 66b0 8a3e 3b62 4abe
00000060: 6e1a 28be 646d 4d3e ed50 01bf fdcc 453e
00000070: 4dbf ed3d a7b2 f73e e19f 3d3f 607b 843f
00000080: d913 b5be de3c 10bf 6699 483e 9804 4dbf
00000090: 6f66 e2bb e2ce 243f c055 053f b037 98be
000000a0: fd40 bb3e 4b1b 473f 7ae9 113f 5d12 0abf
000000b0: 11af 2b3f 4bf8 ef3e 29d3 993f 9caa 7e3e
000000c0: c974 013f 067e 87bd ce91 e8be 79d8 95be
000000d0: d5fa 053f 97ad 5bbf eb6d 2ebe 2c30 5b3e
000000e0: 94d4 a2bf dabc e9be cc61 cfbe 3b7f ddbe
000000f0: b086 12bf 4d3e 7f3e 0289 113f a057 fc3e
00000100: 8eef 2c3d 7c9d 3a3e e27a 0d3f d921 90c0
00000110: 50f2 453f c229 0bc0 ea16 01c0 8310 693d
00000120: 6f37 a03a 1907 b23e 2430 e9bf 9e50 903f
00000130: 363e 01bf 55f8 f6be d737 593e cab4 f2bf
00000140: 2ee0 42c0 3511 083f 91ab a5bf 8b83 81bf
00000150: e860 0b3f bb7a 753f 3917 fb3c e1c8 ce3d
00000160: f611 32bf 1e1f 81be 989b f23e 0158 fbbe
00000170: 3822 b3bf 3cfc b03f 50f8 413e af1e babf
00000180: e94b 893e 43de 6ebe 5860 99bf 52c6 813f
00000190: 1de9 a0bf f73a 2b3f 1067 18c0 74e4 40bf
000001a0: 4e38 8bbf c6d4 46be 3f42 cabf 3333 193f
000001b0: f859 683f a22d 9abe 3de3 39c0 503b e9bd
000001c0: 6e19 4cbf 9fc7 093e 5282 c4be e560 a6bc
000001d0: 6b8f 743e d866 d63e 26c9 ee3e 2ded b9be
000001e0: 7d6a 17be c974 5d3e 3e9c f5bd 5444 823e
000001f0: a993 6c3f 8d19 c83f 363a 1abe 5c69 3abe
00000200: b0e6 353e 0db3 99be 81a7 cc3e ed3e cabe
00000210: bd15 2b3e de7d 1d3f e8ce 633f f7a3 263f
00000220: c1c0 423d 8da4 b33d 7877 41bc 99b1 89be
00000230: 9177 68be fd96 653f 9450 173e 1930 5abe
00000240: 48e5 013f 27b8 b5be 8103 ae3e f7b7 a93e
00000250: 3bdc 053f 6353 c63d d155 8f3e 84c9 16bf
00000260: 45b5 723d 2957 ab3e 2219 563e 4807 4f3f
00000270: de72 0d3d fa53 81bf 8010 8bbd d3bc 15bf
00000280: 2c87 41be 7822 bf3e fcf8 723d 70e1 d3bf
00000290: c373 1c3e e2ff a23d e765 b6bf 0dcb a23f
000002a0: 2f02 813f 369f 633e ae85 a1bf 0dc5 8cbf
000002b0: e2c9 20bf 9394 b23e e9cd 48be e2e2 ab3e
000002c0: 4c3a 1bbf d383 acbd 074c 863e 76ca 6a3e
000002d0: dbe7 29be 1c47 1ebc 1f7d 97be b47e 7c3d
000002e0: 0bc5 d73e 63f7 1fbf 9b43 ba3e b6ec 83bd
000002f0: 38c1 40bf 72c4 11bf 84f6 6b3e 7ce1 553f
00000300: d670 723e fbc6 9bbe 1f04 65be 1bfc 91bf
00000310: 0287 1fbf 327c c23e 40f3 073f 8646 873d
00000320: 2430 d03e ae56 0ebe c2d4 ebbf 7c40 2ebf
00000330: 2db9 23bf 8321 76be 5617 6039 e802 ac3d
00000340: ee88 c0be 9e12 25bf 8fea b43e c032 1cbf
00000350: 63e7 ba3e b87d cfbe a1a2 cd3e 6bab 20bf
00000360: 08f7 e4bc 68ae eb3e a376 9f3e 6508 003f
00000370: 0e88 88bf 80df 5dbe 44dc 7c3d 2765 f3be
00000380: 2f60 063f bd58 b43e fbd3 d23e 5819 5ac0
00000390: 5126 ce3d 6993 8b3e 2e28 cebf a688 04c0
000003a0: aa21 103f f8b0 ce3e 5deb 46bf 6974 243f
000003b0: f8d6 233f f264 e23e e080 25bf 1b0e 53b9
000003c0: 9b1f 9e3e ff05 173f e076 043f b33b f13e
000003d0: b5bd 033d 36a1 21bf 32a3 ef3c b7aa ef3e
000003e0: f20e 1fbc 54cb 203e 3761 bf3c 8a2c a53d
000003f0: 1241 4b3e cde8 263e 3a00 e23e 7637 f43e

fc.2.bias f4 [64]
-0.011466523 -0.104959525 0.100864805 0.46456385 0.09588215 0.32827404 -0.34378713 -0.16583453
-0.00018291765 -0.12711099 0.18663761 -0.20958292 0.24154171 0.32605237 0.22489022 -0.21227981
0.07377961 -0.010761124 0.049372308 0.23062891 0.016985489 0.102947116 0.18910787 -0.38663208
0.19734998 -0.42705807 0.096558936 0.20074868 0.2683249 0.0904966 0.14781407 0.275597
-0.58281124 0.09517971 0.30883273 -0.20583412 -0.23109521 -0.08638019 -0.040546656 0.34725672
0.20877595 0.109683536 0.27427852 0.30341208 -0.08799317 -0.13150902 0.17532527 -0.08560692
-0.22778922 -0.06393278 -0.7079851 0.08861517 0.33256012 -0.03812625 0.12798668 -0.16273731
0.39530128 -0.22291632 -0.0072721886 0.42380124 -0.26018542 0.05375202 -0.44272262 0.034537647
00000000: 15de 3bbc 05f5 d6bd 3592 ce3d 50db ed3e
00000010: dc5d c43d 8913 a83e de04 b0be 87d0 29be
00000020: 95cd 3fb9 6229 02be ee1d 3f3e e89c 56be
00000030: b656 773e 56f0 a63e 9f49 663e e15f 59be
00000040: c419 973d 6d4f 30bc 9e3a 4a3d fc29 6c3e
00000050: 2725 8b3c f0d5 d23d 7ea5 413e a4f4 c5be
00000060: 1d16 4a3e 5ba7 dabe b1c0 c53d 1091 4d3e
00000070: e261 893e 4856 b93d 925c 173e 0d1b 8d3e
00000080: 1e33 15bf 94ed c23d 531f 9e3e 2ec6 52be
00000090: 39a4 6cbe 19e8 b0bd 4014 26bd a2cb b13e
000000a0: 5dc9 553e c3a1 e03d 3c6e 8c3e d458 9b3e
000000b0: c335 b4bd 4daa 06be 7888 333e ae52 afbd
000000c0: 9441 69be 30ef 82bd 833e 35bf df7b b53d
000000d0: 5245 aa3e 452a 1cbd f10e 033e 9ca4 26be
000000e0: ee64 ca3e 2d44 64be 8a4b eebb 7afc d83e
000000f0: 0637 85be 142b 5c3d 8aac e2be 5977 0d3d

fc.4.weight f4 [4, 64]
-0.74312925 1.4207026 -0.54085755 -0.79592115 0.06675262 1.5850359 -0.10864712 -0.045813967
-0.5812077 0.01118259 -0.5154258 1.0222298 1.1660509 0.6513894 1.044635 -0.97527194
-0.032597326 1.4494603 -0.7797657 0.49163607 1.3497559 -0.6104516 2.6359034 1.9243393
-0.63016295 -0.7485083 1.3142252 -0.56858003 -0.024757328 -0.4433599 0.55047387 0.7691073
-1.8821181 -0.44138578 -1.1735964 -0.1049918 0.6997105 0.03089958 0.088770896 -0.90770584
1.4876407 0.72359324 -1.1935415 2.04828 1.4625353 0.04975158 -0.35153347 -0.9932237
-1.8149047 1.5498136 1.3309722 1.0564997 1.7700385 0.81370115 -0.3479088 1.9127228
-0.5423938 -1.4095408 -0.07468844 0.8800081 -1.228446 0.5942506 -1.3293875 -0.47493485
-0.8927888 1.5667186 -0.584219 -0.99635893 -0.2845013 1.7694049 -0.6082424 0.20371875
-0.56303304 0.00828916 -0.4107924 1.3158774 1.182524 1.1784736 1.119938 -0.98795813
-0.41296506 1.350459 -0.6468502 0.7759073 1.5099213 -0.77159435 2.3630326 2.0550742
-0.45615363 -0.7480618 -0.3796826 -0.3908459 -0.41462332 -0.4484507 0.41526476 0.6873045
-2.6604402 -0.4614136 -1.3323431 -0.32848814 0.893094 0.009717102 0.03138514 -0.87961507
1.4126807 0.059337698 -1.0226345 2.198792 1.447144 -0.00047310189 -0.36924943 -1.0461164
-0.18867111 1.9848741 1.3563931 0.8236899 1.5569108 1.8649262 -0.3545706 1.721414
-0.10972036 -1.4716371 -0.046170156 1.1262487 -0.7905293 -0.0048849825 -1.4486674 -0.52383643
-0.98649144 1.9778625 -0.109212294 -0.8680898 0.58412415 1.5446353 1.0247765 -0.45499295
-0.6865628 0.008936712 -0.23494168 0.72960967 0.9832155 0.82133454 0.6979794 -0.97787887
-0.32779315 1.6013606 -0.65207726 0.76418203 1.5349886 -0.7697806 2.0081747 1.7603114
-0.6111165 -0.7874519 1.5127331 -0.6712583 0.46412954 -0.18842717 0.9365168 0.6790682
-1.5261195 -0.5370367 -0.60671604 0.5782915 -0.3979452 0.05004345 0.1134713 -0.5714724
1.3154507 0.8452318 -1.0234516 1.9993759 1.5266507 -0.0048923194 -0.7111732 -0.7781645
-2.065706 1.3567123 1.439644 1.5069519 1.769683 0.96173507 -0.53128767 1.7957115
-1.1116357 -1.3066032 0.035823084 0.82771814 -1.5347161 0.10603243 -1.558117 -0.31383955
-0.78735644 1.2889407 -0.07480792 -0.7359597 0.49601915 1.442904 -0.122197144 -0.044823505
-0.5438791 0.07858768 -0.62264395 -0.29163235 0.9849455 0.6817305 0.8987417 -0.89398605
0.31464052 1.5062747 -0.7635425 0.343855 1.3503212 -0.21502978 2.1537826 1.8448092
-0.96180975 -0.6018605 1.3790268 -0.8859557 -0.3112627 -0.40057698 0.6886608 1.1265247
-0.659141 -0.123385765 -1.3145211 0.25353083 0.5755641 0.011735038 -0.04174392 -0.66242546
2.1217725 0.48518267 -1.5271902 1.7932 1.321498 0.022881761 -0.73043966 -0.6887476
-2.0451114 2.3463345 1.0124134 1.1266204 1.7984979 -0.58330446 -0.57295626 1.8888577
-0.6751775 -1.4620385 0.016876837 0.88162744 -0.8834022 0.45323402 -1.562518 -0.12609825
00000000: b83d 3ebf 95d9 b53f a475 0abf 7dc1 4bbf
00000010: 99b5 883d 75e2 ca3f 6282 debd 6da7 3bbd
00000020: 07ca 14bf 2f37 373c f2f2 03bf 6dd8 823f
00000030: 2841 953f 75c1 263f 9ab6 853f 6cab 79bf
00000040: c684 05bd ea87 b93f ba9e 47bf b9b7 fb3e
00000050: cdc4 ac3f 8e46 1cbf a4b2 2840 c050 f63f
00000060: 5c52 21bf 3d9e 3fbf 8838 a83f 768e 11bf
00000070: e1cf cabc 1200 e3be dbeb 0c3f 37e4 443f
00000080: 3fe9 f0bf 51fd e1be 6838 96bf f105 d7bd
00000090: 3a20 333f 1e21 fd3c 84cd b53d 695f 68bf
000000a0: 036b be3f 683d 393f f8c5 98bf 0517 0340
000000b0: 5b34 bb3f 50c8 4b3d 32fc b3be e943 7ebf
000000c0: cc4e e8bf 4b60 c63f 4c5d aa3f 623b 873f
000000d0: 9f90 e23f b84e 503f 1a21 b2be 1ad4 f43f
000000e0: 52da 0abf d56b b4bf 41f6 98bd 3648 613f
000000f0: b83d 9dbf cf20 183f 5f29 aabf a92a f3be
00000100: cf8d 64bf 3c8a c83f 608f 15bf 6111 7fbf
00000110: 28aa 91be dc7b e23f c6b5 1bbf a69b 503e
00000120: ef22 10bf 42cf 073c 6253 d2be ac6e a83f
00000130: f25c 973f 39d8 963f 215a 8f3f d3ea 7cbf
00000140: 2870 d3be d7db ac3f fa97 25bf dca1 463f
00000150: 1a45 c13f 3587 45bf ed3b 1740 5686 0340
00000160: f88c e9be fa80 3fbf c265 c2be f41c c8be
00000170: 8249 d4be 559b e5be 959d d43e 30f3 2f3f
00000180: a744 2ac0 673e ecbe 388a aabf 992f a8be
00000190: cfa1 643f 7b34 1f3c b48d 003d 742e 61bf
000001a0: b9d2 b43f 160c 733d b0e5 82bf 02b9 0c40
000001b0: 043c b93f a90a f8b9 430e bdbe 24e7 85bf
000001c0: 0033 41be 5b10 fe3f 4a9e ad3f 57dd 523f
000001d0: da48 c73f e7b5 ee3f 478a b5be 4b57 dc3f
000001e0: 11b5 e0bd 9b5e bcbf eb1c 3dbd eb28 903f
000001f0: 2160 4abf 3412 a0bb ef6d b9bf 251a 06bf
00000200: b48a 7cbf 992a fd3f b2aa dfbd 223b 5ebf
00000210: 2989 153f 9cb6 c53f e02b 833f d6f4 e8be
00000220: 94c2 2fbf 496b 123c 8d94 70be b3c7 3a3f
00000230: 03b4 7b3f fb42 523f c7ae 323f 4556 7abf
00000240: 81d4 a7be 62f9 cc3f 89ee 26bf 6fa1 433f
00000250: 827a c43f 5710 45bf ef85 0040 e251 e13f
00000260: 2272 1cbf 7396 49bf 3da1 c13f 95d7 2bbf
00000270: 63a2 ed3e 0df3 40be 91bf 6f3f 6ad7 2d3f
00000280: e257 c3bf 3d7b 09bf be51 1bbf e90a 143f
00000290: 79bf cbbe 5cfa 4c3d a463 e83d 044c 12bf
000002a0: b060 a83f 1c61 583f 7600 83bf 8deb ff3f
000002b0: 4a69 c33f c04f a0bb 720f 36bf ca35 47bf
000002c0: 8734 04c0 c0a8 ad3f 4146 b83f cde3 c03f
000002d0: f984 e23f 4534 763f 7802 08bf e0d9 e53f
000002e0: 144a 8ebf c63e a7bf 3abb 123d 56e5 533f
000002f0: 9471 c4bf 8827 d93d 6170 c7bf 94af a0be
00000300: 3190 49bf 02fc a43f e534 99bd db67 3cbf
00000310: 39f6 fd3e 14b1 b83f 7f42 fabd da98 37bd
00000320: a93b 0bbf 94f2 a03d 9865 1fbf d650 95be
00000330: 6325 7c3f e485 2e3f f013 663f 45dc 64bf
00000340: 9018 a13e 9ccd c03f 8577 43bf c30d b03e
00000350: 53d7 ac3f c430 5cbe 93d7 0940 b522 ec3f
00000360: 2a39 76bf 8813 1abf f383 b03f fecd 62bf
00000370: d35d 9fbe 6d18 cdbe 134c 303f f631 903f
00000380: 77bd 28bf adb1 fcbd 3a42 a8bf cbce 813e
00000390: 2b58 133f 5144 403c acfb 2abd b794 29bf
000003a0: 1fcb 0740 dd69 f83e f87a c3bf 9487 e53f
000003b0: d926 a93f 8872 bb3c 18fe 3abf c351 30bf
000003c0: 1be3 02c0 582a 1640 c396 813f 1935 903f
000003d0: 2e35 e63f 7153 15bf 43ad 12bf 17c6 f13f
000003e0: 6fd8 2cbf 1424 bbbf 4b41 8a3c 56b2 613f
000003f0: a626 62bf 4a0e e83e 9700 c8bf e61f 01be

fc.4.bias f4 [4]
-0.09861701 -0.0330494 0.18987662 -0.048683215
00000000: b7f7 c9bd cf5e 07bd 046f 423e 0d68 47bd
